…
]Processing:  99%|█████████▊| 1036/1050 [00:14<00:00, 77.74it/s]Processing:  99%|█████████▉| 1044/1050 [00:14<00:00, 77.69it/s]Processing: 100%|██████████| 1050/1050 [00:14<00:00, 72.96it/s]

[SUMMARY] Loaded 742 train, 103 val, 205 test samples

[STEP 4] Build Character Tokenizer...
Vocab size: 26
[SAVE] Tokenizer saved to /Users/steven/Documents/Github Repositories/EEG-to-Text_Conformer-Transducer/src/pipelines/training/tokenizer.json

[STEP 5] Create PyTorch Datasets...

[STEP 5b] Build model...
ConformerTransducer(
  (encoder): Conformer(
    (subsampling): ConvSubsampling(
      (conv1): Conv2d(1, 256, kernel_size=(3, 3), stride=(2, 2), padding=(1, 1))
      (conv2): Conv2d(256, 256, kernel_size=(3, 3), stride=(2, 2), padding=(1, 1))
    )
    (linear): Linear(in_features=71680, out_features=256, bias=True)
    (dropout): Dropout(p=0.1, inplace=False)
    (conformer_blocks): ModuleList(
      (0-7): 8 x ConformerBlock(
        (ffn1): FeedForwardModule(
          (layer_norm): LayerNorm((256,), eps=1e-05, elementwise_affine=True)
          (linear1): Linear(in_features=256, out_features=1024, bias=True)
          (swish): Swish()
          (dropout1): Dropout(p=0.1, inplace=False)
          (linear2): Linear(in_features=1024, out_features=256, bias=True)
          (dropout2): Dropout(p=0.1, inplace=False)
        )
        (self_attn): MultiHeadedSelfAttentionModule(
          (layer_norm): LayerNorm((256,), eps=1e-05, elementwise_affine=True)
          (linear_q): Linear(in_features=256, out_features=256, bias=True)
          (linear_k): Linear(in_features=256, out_features=256, bias=True)
          (linear_v): Linear(in_features=256, out_features=256, bias=True)
          (linear_out): Linear(in_features=256, out_features=256, bias=True)
          (dropout): Dropout(p=0.1, inplace=False)
          (linear_pos): Linear(in_features=256, out_features=256, bias=False)
        )
        (conv): ConvolutionModule(
          (layer_norm): LayerNorm((256,), eps=1e-05, elementwise_affine=True)
          (pointwise_conv1): Conv1d(256, 512, kernel_size=(1,), stride=(1,))
          (glu): GLU()
          (depthwise_conv): Conv1d(256, 256, kernel_size=(31,), stride=(1,), padding=(15,), groups=256)
          (batch_norm): BatchNorm1d(256, eps=1e-05, momentum=0.1, affine=True, track_running_stats=True)
          (swish): Swish()
          (pointwise_conv2): Conv1d(256, 256, kernel_size=(1,), stride=(1,))
          (dropout): Dropout(p=0.1, inplace=False)
        )
        (ffn2): FeedForwardModule(
          (layer_norm): LayerNorm((256,), eps=1e-05, elementwise_affine=True)
          (linear1): Linear(in_features=256, out_features=1024, bias=True)
          (swish): Swish()
          (dropout1): Dropout(p=0.1, inplace=False)
          (linear2): Linear(in_features=1024, out_features=256, bias=True)
          (dropout2): Dropout(p=0.1, inplace=False)
        )
        (layer_norm): LayerNorm((256,), eps=1e-05, elementwise_affine=True)
      )
    )
  )
  (decoder): LSTMDecoder(
    (embedding): Embedding(26, 256)
    (lstm): LSTM(256, 512, batch_first=True)
    (dropout): Dropout(p=0.1, inplace=False)
  )
  (joiner): JointNetwork(
    (encoder_proj): Linear(in_features=256, out_features=512, bias=True)
    (decoder_proj): Linear(in_features=512, out_features=512, bias=True)
    (activation): Tanh()
    (output_proj): Linear(in_features=512, out_features=26, bias=True)
  )
)

[STEP 6] Training model...
================================================================================

[Epoch 1/50]
Training:   0%|          | 0/93 [00:00<?, ?it/s]Training:   1%|          | 1/93 [00:00<01:11,  1.29it/s]Training:   2%|▏         | 2/93 [00:01<01:00,  1.51it/s]Training:   3%|▎         | 3/93 [00:01<00:54,  1.65it/s]Train
…
